models/wav2vec_MLP_best.pth (torch, 956171 bytes, 7 tensors)

model.0.weight f4 [256, 768]
0	0x3ca202a4	0.01977665
1	0xbc38244a	-0.011239121
2	0x3cd7874a	0.026309628
3	0xbd31b1ed	-0.043382574
4	0x3c0b986f	0.00852023
5	0xbbfebff4	-0.0077743474
6	0xbcd6f118	-0.02623801
7	0xbc107b97	-0.008818529
8	0x3c8a9efc	0.016921513
9	0x3cdc6e9f	0.026908217
10	0xbd5b8e31	-0.0536024
11	0xbc306803	-0.010766986
12	0x3c90913e	0.017647382
13	0x3ae7c32d	0.0017682068
14	0xbd7cffb3	-0.06176729
15	0x3ded00b8	0.11572403
16	0x3c71d2b5	0.014759709
17	0xbd3e2238	-0.046419352
18	0x3c3fb304	0.0117003955
19	0xbc85ce40	-0.0163337
20	0x3c7cd2fd	0.015431163
21	0x3cf86487	0.030321373
22	0x3c877f1f	0.016540108
23	0xbce2cb6c	-0.02768489
24	0xbc19d434	-0.009388972
25	0x39f0979c	0.00045889325
26	0xbd61c37b	-0.055118065
27	0x3d2a464b	0.041570943
28	0xbd3f2d95	-0.04667433
29	0x3c025bf7	0.007956496
30	0xbc5256ae	-0.012838049
31	0x3c0a0aaf	0.008425399
32	0x3bc423b6	0.0059857024
33	0xbda0119c	-0.07815859
34	0x3c56657c	0.013085719
35	0x3cf537ad	0.029933775
36	0x3cd5d754	0.026103653
37	0x3ce07c1a	0.027402926
38	0x3ba5aff2	0.0050563747
39	0xbccf3ad5	-0.025296608
40	0xbcbf0eb7	-0.023322446
41	0x3cf258c6	0.029583346
42	0x3ceea406	0.029130947
43	0xbe2ea424	-0.17054802
44	0xbd46f54f	-0.04857379
45	0xbc9791fc	-0.018502228
46	0xbc6eaeef	-0.014568075
47	0x3d202266	0.039095305
48	0xbd4a70c8	-0.049423963
49	0x3c85a5c8	0.016314402
50	0x3c051ca8	0.008124508
51	0x3a05e318	0.0005107387
52	0x3cb80569	0.022463517
53	0xbd8a88d6	-0.06764381
54	0x3cbc7200	0.023003578
55	0x3d26c662	0.040716536
56	0x3c8a2e6f	0.016867844
57	0xba203929	-0.0006112033
58	0xbd293546	-0.04131057
59	0xbb5fa87a	-0.003412752
60	0x3cfca90c	0.030842327
61	0x3c0bd65e	0.008534996
62	0xbd07fca7	-0.033199932
63	0x3c6c8b21	0.014437468
64	0xbcc65d46	-0.024214398
65	0xbc0c4be5	-0.008563017
66	0x3d3f7607	0.04674342
67	0xbad250b2	-0.0016045778
68	0xbd42522d	-0.04744165
69	0x3ba07667	0.004896927
70	0x3d03b5e3	0.032155883
71	0xbc13c934	-0.0090201385
72	0x3cf0e470	0.029405802
73	0x3d339f72	0.04385323
74	0x3d8818b3	0.06645336
75	0xbc17f6c4	-0.009275142
76	0xbbd1d714	-0.006403813
77	0xbdc326d9	-0.09528894
78	0x3c0e9115	0.008701582
79	0x3d76615e	0.06015145
80	0x3c3a93aa	0.011387745
81	0x3e2aa619	0.16664924
82	0xbd050393	-0.03247411
83	0x3d8b4a68	0.06801301
84	0x3dede090	0.116150975
85	0xbbe971d1	-0.0071241637
86	0xbc60777c	-0.013700362
87	0x3ccbe815	0.024890939
88	0xbcb2f7f1	-0.021846743
89	0xbc5ea956	-0.0135901775
90	0xbb9a1eaf	-0.004703365
91	0xbc692693	-0.014230388
92	0xbcb987a7	-0.022647692
93	0x3c981a15	0.018567124
94	0x3c04a530	0.008096024
95	0x3dc6d3e0	0.09708381
96	0xbbb4e577	-0.0055205184
97	0xbd040b4c	-0.032237336
98	0x3de24fec	0.110504
99	0xbc170480	-0.0092173815
100	0x3c5a913c	0.013340291
101	0x3d1b7dd3	0.037961792
102	0x3d2ba925	0.041909356
103	0x3dc0a45b	0.09406348
104	0x3a9cbedd	0.0011958737
105	0x3d47fa42	0.04882265
106	0x3d0ec7a6	0.03485837
107	0x3d602d63	0.054730784
108	0x3ca2d75d	0.019878084
109	0xbc033624	-0.008008514
110	0xbbf54bea	-0.0074858563
111	0xbc399b91	-0.011328594
112	0x3d2c10bf	0.042008158
113	0x3d45b41a	0.04826746
114	0xbd66d6a8	-0.056357056
115	0xbcdaf928	-0.026730135
116	0x39dc4543	0.00042013274
117	0xbc945ca0	-0.018110573
118	0x3cfb14d1	0.030649574
119	0xbbb1d2a5	-0.005426722
120	0xbc949195	-0.018135825
121	0xbd0fb63b	-0.035085898
122	0xbc1b6d59	-0.00948652
123	0xbbcca168	-0.006244827
124	0x3bee4ac0	0.0072720945
125	0x3d28fb61	0.04125536
126	0xbc669ff6	-0.014076224
127	0x3c1efa4c	0.00970323
128	0x3d021e54	0.031767204
129	0xbc130331	-0.008972929
130	0xbb0dbd2c	-0.0021627648
131	0x3ca3eccb	0.020010373
132	0xbbc64859	-0.006051105
133	0xbda8a814	-0.08235183
134	0x3bf9066e	0.0075996434
135	0xbc9d045a	-0.019167114
136	0xbd504b1b	-0.050852876
137	0x3b1427e4	0.0022606784
138	0x3c2b1aed	0.010443431
139	0xbd09c8ca	-0.033638753
140	0xbcbdf324	-0.023187228
141	0xbd672401	-0.05643082
142	0xbc339472	-0.010960685
143	0xbd92d43b	-0.07169386
144	0x3d2a71e5	0.041612525
145	0xbc8fd9f8	-0.01755999
146	0x3b9b4857	0.004738848
147	0xbd9c04df	-0.076181166
148	0xbd16a093	-0.03677423
149	0xbcb453e3	-0.022012657
150	0xbcea4954	-0.028599419
151	0x3a6be500	0.0008998662
152	0xbdb6c9fe	-0.08925246
153	0x3cb36df0	0.021903008
154	0x3d2d2442	0.042270906
155	0x3d9317f0	0.071823
156	0xbc847ab8	-0.016171798
157	0xbca4e8f9	-0.020130621
158	0x3c1eb469	0.009686568
159	0x3cb6b2d4	0.022302069
160	0x3bdb0637	0.0066840905
161	0xbcab18e5	-0.020885894
162	0xbcd2954f	-0.025705962
163	0xbd7986e8	-0.060919672
164	0x3c9833c4	0.018579371
165	0xbd13f1ba	-0.0361192
166	0x3d74516a	0.059647955
167	0xbb3fc9cc	-0.0029264567
168	0xbce54032	-0.027984712
169	0x3c8d23fd	0.017229075
170	0xbe0b85c3	-0.13625245
171	0xbdc4be50	-0.09606612
172	0xbb7b49ad	-0.0038343475
173	0x3d46224e	0.04837256
174	0xbcaa3187	-0.02077557
175	0x3d4072f7	0.04698464
176	0xbb646dee	-0.0034855562
177	0xbd9018dc	-0.070359915
178	0xbc452f88	-0.012035258
179	0x3c7b587e	0.015340922
180	0x3ca68e90	0.020331651
181	0xbd36aef6	-0.04460045
182	0x3d537380	0.05162382
183	0xbbfd2437	-0.0077252644
184	0x3d315a7d	0.043299187
185	0xbd758565	-0.059941668
186	0x3c9e7fb0	0.019347996
187	0xbce7af35	-0.028281787
188	0xbd082338	-0.033236712
189	0x3d37c701	0.04486752
190	0xbcb9e772	-0.02269337
191	0xbd0b73aa	-0.034045853
192	0x3905dc83	0.00012766015
193	0x3cdbcfbe	0.026832458
194	0xbcfb6459	-0.030687498
195	0x3d6d0b70	0.057872236
196	0x3c520ed9	0.012820923
197	0xbc34bf5d	-0.011031953
198	0x3c9584af	0.018251745
199	0xbd37d7d5	-0.044883568
200	0xbc362e6c	-0.011119466
201	0x3c702558	0.014657341
202	0xbcb5e4c2	-0.022203807
203	0x3da0cc9b	0.078515254
204	0x3d99c1f8	0.075077
205	0xbc3e9e42	-0.011634411
206	0x3d9b68e3	0.07588365
207	0xbd3e0cc2	-0.046398886
208	0xbd91403e	-0.07092331
209	0x3b169423	0.002297648
210	0x3c028201	0.007965566
211	0x3caf975b	0.021434477
212	0xbc62d31c	-0.013844278
213	0xbcade27f	-0.021226166
214	0x3c741716	0.014898082
215	0xbd7eca5c	-0.062204704
216	0x3cf5cb71	0.030004235
217	0xbc1ee575	-0.0096982615
218	0xbd2913cb	-0.04127864
219	0x3c4e9393	0.012608427
220	0xbba534c6	-0.0050416915
221	0xbce70caf	-0.02820429
222	0xbd263c91	-0.040585104
223	0xbcd8f1f0	-0.026482552
224	0xbc52904b	-0.012851785
225	0x3c776a7b	0.0151010705
226	0xbc89a437	-0.016801937
227	0xba6b1f5f	-0.0008969213
228	0x3b80ec60	0.003934428
229	0xbb618a07	-0.0034414546
230	0xbd2b523c	-0.04182647
231	0x3cbbaa7c	0.022908442
232	0xbd412b63	-0.047160517
233	0x3caad9f7	0.020855887
234	0xbc389ac2	-0.011267366
235	0x3c283c69	0.010268309
236	0xbd6d8ffa	-0.057998635
237	0x3c9f6abf	0.01946008
238	0xbc794dbd	-0.015216288
239	0x3c4be9ad	0.012445849
240	0xbd0998eb	-0.0335931
241	0x3ca7c55b	0.020479849
242	0x3d149830	0.03627795
243	0x3d1b202e	0.037872486
244	0x3c62db36	0.013846209
245	0x3ca790a9	0.020454722
246	0xbdc1ea77	-0.09468549
247	0x3d74ee66	0.059797667
248	0x3bd81976	0.006594832
249	0x3cef32cd	0.029199028
250	0x3cf19298	0.029488847
251	0x3d1c7836	0.03820058
252	0x3d44654f	0.047948178
253	0xbcd7a30c	-0.026322864
254	0xbca2cd38	-0.019873247
255	0x3d4ed23f	0.050493475

model.0.bias f4 [256]
0	0x3be7f319	0.00707854
1	0x3cb91ea3	0.022597617
2	0xbc9c5c0c	-0.01908686
3	0xbb75ea5a	-0.0037523718
4	0xbc8ea943	-0.017414695
5	0xbc9df2c0	-0.019280791
6	0xbc744d32	-0.014910983
7	0x3cc8b112	0.024498496
8	0x3d04043f	0.032230612
9	0x3d2394ad	0.03993671
10	0xbaffb8d8	-0.0019510044
11	0x3cbbd439	0.022928344
12	0x3c8ac5bb	0.016939988
13	0x3cd6f2ff	0.026238916
14	0xbd00655d	-0.031346668
15	0x3a0ef960	0.000545403
16	0x3c3868eb	0.011255483
17	0x3c9be836	0.019031625
18	0x3d2549c6	0.04035356
19	0x3ca22ef8	0.019797787
20	0x3cde0535	0.027102092
21	0x3c36b097	0.011150501
22	0xbccb916b	-0.024849614
23	0x3b23d9d7	0.002500167
24	0x3c65316b	0.013988833
25	0x3cbc0689	0.022952335
26	0xbd1329e9	-0.03592864
27	0xbcbd6065	-0.023117254
28	0xbbe86df4	-0.0070931856
29	0x3ce1e7b7	0.02757631
30	0xbcd7767f	-0.02630162
31	0xbd19859e	-0.037480943
32	0xbca35aca	-0.019940753
33	0xbcae56c9	-0.021281617
34	0xbc312507	-0.010812051
35	0xbc4c4c5e	-0.012469379
36	0xbca35421	-0.019937577
37	0xbbc95448	-0.0061440803
38	0x3c9ac0c5	0.018890748
39	0xbce609e0	-0.02808088
40	0xbbc8014b	-0.0061036698
41	0xbc8b3703	-0.016994005
42	0xbb412884	-0.0029473612
43	0xbd012025	-0.031524796
44	0xbb51bec3	-0.0032004572
45	0x3c0c54aa	0.008565107
46	0xbc8f45bb	-0.017489305
47	0x3d0ae03c	0.033905253
48	0x3d062c99	0.032757375
49	0x3c3ed8cd	0.011648369
50	0xbce80f2d	-0.028327549
51	0xbbce782b	-0.006300946
52	0xbc843c54	-0.016142048
53	0xbd114bd5	-0.03547271
54	0x3c565bff	0.013083457
55	0x3c383b09	0.011244544
56	0x3c762f82	0.015025975
57	0xbc2c215c	-0.010506
58	0xbcfc659a	-0.030810166
59	0xbd1a8908	-0.03772834
60	0x3c170ba3	0.009219083
61	0x3af48ea6	0.0018658235
62	0xbc856169	-0.0162818
63	0xbc191536	-0.009343436
64	0xbc37c5b4	-0.01121657
65	0xbc70664f	-0.01467283
66	0x3c434082	0.011917235
67	0xbcef9e9b	-0.029250434
68	0x3c1710eb	0.009220342
69	0x3ca931dc	0.020653658
70	0x3bdce0c8	0.006740663
71	0xbc0db0bc	-0.008648094
72	0xbbb2cd09	-0.005456571
73	0x3bdeec07	0.006803039
74	0xbceeb123	-0.0291372
75	0xbcc0b173	-0.023522114
76	0xba92f1bd	-0.001121096
77	0xbce07919	-0.027401494
78	0x3b8f0306	0.004364374
79	0x3c59eb0e	0.01330067
80	0xbce90a30	-0.02844724
81	0x3ac8f9b9	0.0015333212
82	0xbc9819a8	-0.018566921
83	0x3bf0af7f	0.0073451395
84	0xbd0a41d1	-0.033754174
85	0xbcbf500b	-0.023353597
86	0x3cd97d9e	0.026549157
87	0xbc082377	-0.008309237
88	0x3b98b178	0.004659828
89	0xbc9bb3ed	-0.019006694
90	0xbb30f071	-0.0026998783
91	0xbc027c11	-0.00796415
92	0xbd00ccfc	-0.03144549
93	0x3cef6b9d	0.029226119
94	0xba1d5b45	-0.0006002675
95	0xbbb5f7d5	-0.0055532255
96	0xbd14d583	-0.036336433
97	0xbc9bb613	-0.019007718
98	0xbb388220	-0.0028153732
99	0x3bc12ff1	0.0058956076
100	0x3cdfc21d	0.02731424
101	0xbb83f483	-0.004026951
102	0xba863f5e	-0.0010242274
103	0x3c4d2cd3	0.012522894
104	0xba8fcac0	-0.0010970458
105	0x3c76fe14	0.015075225
106	0x3cabdd7f	0.020979641
107	0x3d290eff	0.041274067
108	0xba2fd8ca	-0.00067080243
109	0xbd0976d1	-0.033560578
110	0x3cffc38f	0.03122118
111	0xbce308ea	-0.027714211
112	0xba81309a	-0.0009856403
113	0xbcdf8def	-0.027289359
114	0xbc29872a	-0.010347167
115	0xbaeab09a	-0.0017905415
116	0xbc3676a7	-0.011136687
117	0x3d2e1d35	0.042508323
118	0x3c16a870	0.009195432
119	0x3c11a6af	0.008889838
120	0xbb1e255e	-0.002413116
121	0xbbfb36a9	-0.007666428
122	0xbcac8fa2	-0.021064583
123	0x3c952e38	0.018210515
124	0x3ce869d7	0.02837078
125	0xbd0fb6f1	-0.035086576
126	0xbc9cd721	-0.01914555
127	0x3d20e86f	0.039284166
128	0xbc83e0ca	-0.016098399
129	0xbd205e69	-0.039152537
130	0xbbf6dac3	-0.0075334026
131	0x3c0fa2e8	0.008766867
132	0x3ad622d3	0.0016337283
133	0xbd1376ea	-0.036002077
134	0xbc452134	-0.012031842
135	0x3ccae574	0.024767615
136	0x3c6fd5f3	0.014638412
137	0x3c80265a	0.015643287
138	0xbb725869	-0.0036978966
139	0x3c29c529	0.010361948
140	0x3cc0e513	0.023546731
141	0x3bacc6bf	0.005272716
142	0xbc4978fb	-0.01229691
143	0xbca0b234	-0.019616224
144	0xbca79bef	-0.020460097
145	0xbcc859b5	-0.024456838
146	0xbd0c7def	-0.034299787
147	0x3befd932	0.007319593
148	0x3cc9d5a0	0.024637997
149	0x3d01d834	0.031700328
150	0xbcbe69b2	-0.023243759
151	0xbb7c4469	-0.0038492924
152	0x3cce7904	0.02520419
153	0xba865f50	-0.0010251794
154	0x3c065a48	0.008200236
155	0xbd1ebb3c	-0.03875278
156	0x3b4294aa	0.0029690661
157	0x3c88bb9a	0.016691018
158	0xbd0d3f96	-0.03448447
159	0xbbea0121	-0.007141248
160	0x3cb6984c	0.022289418
161	0x3c9a423b	0.01883041
162	0x3ba08fd6	0.004899959
163	0x3c39ed11	0.011348025
164	0x3bf4cdb4	0.007470811
165	0x3cf3180b	0.02967455
166	0x3c6b96e6	0.014379239
167	0x3b954695	0.004555533
168	0x3c0ef204	0.008724693
169	0xbbaf357f	-0.0053469534
170	0x3d19134f	0.03737193
171	0x3c788d33	0.015170383
172	0x3d0c68ef	0.03427976
173	0xbcd1d288	-0.025613084
174	0xbced696c	-0.028980933
175	0xbc302464	-0.010750864
176	0xbcd2e3c2	-0.025743369
177	0xbb9aa847	-0.0047197673
178	0xbc13efdd	-0.009029356
179	0x3b8aaf25	0.0042323046
180	0x3ad5bd62	0.0016307051
181	0x3c26cff5	0.010181417
182	0x3c01a913	0.007913846
183	0x3cf82ee8	0.030295804
184	0x3c4359dc	0.01192328
185	0x3be3a1c4	0.006946774
186	0x3ce0c0c5	0.02743567
187	0xbc058012	-0.00814821
188	0xbca704b6	-0.020387989
189	0xbd15b43a	-0.03654883
190	0xbbcb9003	-0.006212236
191	0xbb3fd028	-0.0029268358
192	0xbbb49395	-0.005510757
193	0xbade0371	-0.0016938281
194	0x3c71e8b0	0.01476495
195	0xbbc7cd0f	-0.006097443
196	0xbd235209	-0.039873157
197	0x3ade579a	0.0016963363
198	0x3c45344b	0.012036393
199	0xbc97b657	-0.018519564
200	0xbc05bad1	-0.008162216
201	0xbce3cf80	-0.027808905
202	0x3c25ad28	0.010112084
203	0x3cef1492	0.029184613
204	0x3c3a4275	0.011368384
205	0xbbbcfde9	-0.005767573
206	0xbc1cfb5d	-0.009581414
207	0xbc338d85	-0.010959034
208	0xbbabb0aa	-0.005239566
209	0xbcca3906	-0.024685394
210	0xbd10eedf	-0.035384055
211	0xbc75d524	-0.01500443
212	0x3c6b0f3a	0.014346892
213	0xbcaa2e25	-0.020773957
214	0xbc55f25b	-0.01305827
215	0x3c8642c8	0.016389266
216	0xbd0708df	-0.032967445
217	0x3c284a1d	0.010271576
218	0x3cc97cf5	0.024595717
219	0xbc1c1f43	-0.009528938
220	0x3ca654d0	0.020304114
221	0xbbea447f	-0.0071492787
222	0xbd095481	-0.033527855
223	0xbcebc022	-0.02877814
224	0x3b9ae2da	0.00472675
225	0x3c514710	0.01277329
226	0x3d0066e8	0.03134814
227	0xbceef862	-0.029171173
228	0x3d04fbd4	0.032466725
229	0xbd054c65	-0.03254356
230	0x3ab78b3e	0.0014003289
231	0xbc116d5c	-0.008876171
232	0xbcbefe4c	-0.023314618
233	0xbc7fbcac	-0.015608948
234	0xbb7649e1	-0.0037580656
235	0x3b70d198	0.0036746021
236	0x3d1b2116	0.03787335
237	0xbd06c0e4	-0.0328988
238	0x3ca1182c	0.019664846
239	0xbb115235	-0.0022174243
240	0xbafbbfbc	-0.0019206922
241	0x3b18c504	0.002331079
242	0x3d2328f8	0.039833993
243	0xbabbbe38	-0.0014323657
244	0x3cac8715	0.021060506
245	0xbcbc6a32	-0.022999857
246	0xbc1ce232	-0.009575414
247	0xbd0f08f7	-0.03492066
248	0xbc46f3c9	-0.012143084
249	0x3c2dadc4	0.010600511
250	0x3c6fb39a	0.014630223
251	0xbb0f328b	-0.0021850194
252	0x3cebbac6	0.028775584
253	0x3c4fd757	0.012685618
254	0xbbe74e53	-0.0070588975
255	0x3bbf012c	0.005828997

model.3.weight f4 [128, 256]
0	0xbd445541	-0.047932867
1	0x3caaf381	0.020868065
2	0x3ca18bfd	0.019720072
3	0x38a8d841	8.051145e-05
4	0x3d092c4e	0.033489518
5	0x322c6f04	1.003696e-08
6	0xb3940fbf	-6.894651e-08
7	0x3d63a7dd	0.05558001
8	0xbd333203	-0.043748867
9	0xbcf42a2e	-0.02980527
10	0xb248b000	-1.168155e-08
11	0x3225918e	9.637359e-09
12	0xbd4e62ed	-0.05038731
13	0x3468979f	2.1661843e-07
14	0xbd116e87	-0.035505798
15	0x3395a453	6.9682436e-08
16	0xbd19f108	-0.03758338
17	0x3d1ac4b9	0.037785266
18	0xbb3425a8	-0.0027488265
19	0xbd34f4ba	-0.044178702
20	0xbad4818f	-0.0016212928
21	0x3bfbe50b	0.007687216
22	0xb451cff2	-1.9540292e-07
23	0x38b35c96	8.5526306e-05
24	0xbac796c7	-0.001522743
25	0xbc3e9f83	-0.01163471
26	0x3cd3c1cb	0.025849244
27	0xbd6cf039	-0.05784628
28	0xb3997118	-7.145189e-08
29	0x3dfe8268	0.12427217
30	0xbd09624d	-0.033541013
31	0x3bf49ec2	0.0074652145
32	0xb2c5c3eb	-2.3022912e-08
33	0xbc2aa331	-0.010414884
34	0xb41a8b7c	-1.4393112e-07
35	0x322f95c0	1.022039e-08
36	0xbd015314	-0.03157337
37	0x3d38ed36	0.045148097
38	0x3cdcd638	0.026957616
39	0x3d1b7873	0.037956666
40	0x31f4eece	7.1284836e-09
41	0x3b25641e	0.0025236676
42	0x3d04c4b7	0.032414164
43	0x3132ab5f	2.5999822e-09
44	0xb12add16	-2.4863929e-09
45	0xbc80724a	-0.015679497
46	0xb11c7382	-2.2766646e-09
47	0x3cfca529	0.030840473
48	0xbdad6b1d	-0.08467696
49	0x3dda142c	0.10648379
50	0x3a11f3b3	0.0005567625
51	0xb27e4134	-1.4799571e-08
52	0x341bf122	1.4523224e-07
53	0xbd3269b4	-0.043557838
54	0xbd0e17f4	-0.034690812
55	0xbd5cfd40	-0.053952456
56	0x3db29f8b	0.08721837
57	0x3cad6500	0.021166325
58	0x3d9704bd	0.07373951
59	0x3c075e73	0.008262265
60	0x3d241466	0.040058516
61	0x3cac2da7	0.021017862
62	0x31b0bc98	5.143715e-09
63	0x33801523	5.964309e-08
64	0x3d126701	0.035742763
65	0xbccc6db1	-0.024954649
66	0xb285ec0f	-1.5590585e-08
67	0x3c02823b	0.00796562
68	0x3d8b2de2	0.06795861
69	0x311b68ea	2.2615105e-09
70	0x3c59faa8	0.01330439
71	0x3c98158b	0.01856496
72	0xbcfbda43	-0.030743724
73	0xbcfcb00b	-0.030845663
74	0x3a030563	0.0004998056
75	0xb1d94858	-6.3237557e-09
76	0xb385e5fa	-6.2351276e-08
77	0x3c5dd073	0.013538468
78	0x3ddb65c9	0.10712773
79	0xbc317db9	-0.010833197
80	0x3d361586	0.04445412
81	0xbbfd2f9e	-0.0077266237
82	0x3c070857	0.0082417345
83	0x3c97d178	0.0185325
84	0xba2b7002	-0.0006539823
85	0x3d8f14c8	0.069863856
86	0x3b87f746	0.0041493503
87	0x3ba06988	0.004895393
88	0x3d878370	0.066168666
89	0x3d4188bc	0.04724954
90	0x32f4927d	2.8471954e-08
91	0xbb87126b	-0.0041220686
92	0x3bd6b099	0.006551814
93	0x3c0863cb	0.008324574
94	0xbc4b1e27	-0.012397326
95	0xb204990f	-7.718213e-09
96	0xbd0ef24b	-0.034899037
97	0x3191bb46	4.241346e-09
98	0x3d46ddc6	0.048551343
99	0xbcc6a1f7	-0.024247153
100	0x3d822fc7	0.06356769
101	0x3d23d5a6	0.039998673
102	0xb22f0046	-1.0186403e-08
103	0x3d733904	0.059380546
104	0x3c7ad498	0.015309475
105	0x3d099f60	0.033599257
106	0x3d0c324a	0.034227647
107	0x3c2f53bf	0.010701119
108	0x32bdf864	2.211545e-08
109	0xbd1b1de9	-0.03787032
110	0xbc7294b2	-0.01480596
111	0x3d119cef	0.035550054
112	0x3d16e921	0.036843423
113	0xbbb024dc	-0.0053754877
114	0xbc43de7b	-0.011954899
115	0xbd0361d6	-0.032075725
116	0x3d9bc9ab	0.076068245
117	0xbab2a3c8	-0.0013629133
118	0x3c0aef74	0.008479942
119	0xbc99b73c	-0.01876413
120	0x325d80a0	1.2893139e-08
121	0xbaad6fc9	-0.0013232167
122	0x3af47ef3	0.0018653556
123	0x3c5e7ac2	0.013579072
124	0x3d3e4f6f	0.046462473
125	0x3ce9badc	0.028531484
126	0x39bfe569	0.00036601283
127	0x3d04e4e5	0.032444853
128	0x3771781b	1.4392684e-05
129	0x3bcc5964	0.006236242
130	0x3cbd0b62	0.023076717
131	0xbd881ecd	-0.066465
132	0xba29b877	-0.0006474326
133	0xbce015d8	-0.027354166
134	0x3a9213a0	0.0011144765
135	0x3cf3da7f	0.029767273
136	0xbd2f112f	-0.042740997
137	0xbc24ae5a	-0.010051334
138	0x32bc3ff1	2.1915158e-08
139	0x3dcb350f	0.099222295
140	0xbae4c6a9	-0.0017454225
141	0x3bec05a1	0.0072028195
142	0x3c0868ab	0.008325736
143	0xb68f5c5c	-4.272484e-06
144	0xb221e8a8	-9.424333e-09
145	0xba60c84c	-0.00085747684
146	0x3c726f62	0.014797064
147	0x3c6ba088	0.014381535
148	0x3b6d016b	0.0036164175
149	0x3d162bcd	0.036662865
150	0x3de70eba	0.11282106
151	0x3a054ff1	0.00050854596
152	0x3cc78628	0.024355963
153	0x32498b59	1.1731424e-08
154	0x313df030	2.763965e-09
155	0x3cada4b2	0.021196697
156	0x3cd0bf69	0.025481896
157	0xbc4971a9	-0.012295165
158	0x3d19a9fb	0.03751562
159	0x3cf4bab1	0.029874178
160	0xbb1bc3cb	-0.0023767825
161	0xafbd195e	-3.4396924e-10
162	0xbc1ea296	-0.009682318
163	0xb3d632a1	-9.974361e-08
164	0x3cfcf897	0.030880256
165	0x3d7bb13a	0.061448313
166	0x3db53019	0.088470645
167	0xb551edfd	-7.8204886e-07
168	0xbb2d1070	-0.0026407503
169	0x2f69dfb8	2.1270707e-10
170	0xbcfa63b6	-0.030565124
171	0x3dcf4007	0.10119634
172	0x3baf77b6	0.005354847
173	0xaf1917ed	-1.3923769e-10
174	0x3c3e286c	0.011606317
175	0x30761a08	8.953127e-10
176	0x3b93b035	0.0045070895
177	0x3ba80f76	0.005128796
178	0x3c55e555	0.013055165
179	0x3415ce6e	1.3951805e-07
180	0x3d3f9025	0.046768326
181	0x3a4fc7f2	0.00079262175
182	0xb3787393	-5.7847114e-08
183	0x3b45c3dd	0.0030176558
184	0x3d0d525e	0.03450238
185	0x3d4c0da0	0.04981768
186	0x3bb5c12a	0.0055467086
187	0x3ce6e94f	0.028187422
188	0xbc4d4fb4	-0.01253121
189	0xbab5f6b5	-0.0013882729
190	0x30dbe300	1.5998864e-09
191	0x32c59a2e	2.3003931e-08
192	0x3ca443ba	0.020051826
193	0xb1ce6c4c	-6.007701e-09
194	0xbd743415	-0.05961998
195	0xaf8c43bc	-2.551398e-10
196	0x3d05f04b	0.032699864
197	0xb15dd068	-3.2278198e-09
198	0x3d57f057	0.05271944
199	0xbca80209	-0.020508783
200	0x3b52db22	0.003217407
201	0x3dcaf40d	0.0990983
202	0x3cdf16b7	0.027232511
203	0x3cc09733	0.023509597
204	0x3c9b3775	0.018947342
205	0x3338be62	4.301399e-08
206	0xbb74912e	-0.003731798
207	0xbb82c203	-0.003990413
208	0x3bdcdd9f	0.0067402865
209	0x3e024d83	0.12724881
210	0xbaf02eb9	-0.0018324471
211	0x3c4140f3	0.01179527
212	0xb31e7485	-3.6893216e-08
213	0xb0a00422	-1.1642707e-09
214	0xbc99acc7	-0.018759144
215	0x3ce37183	0.027764088
216	0xb8a5ce94	-7.906291e-05
217	0x37c38f39	2.3312505e-05
218	0x3bf3297a	0.007420716
219	0xba46a678	-0.00075779064
220	0x3d547d91	0.051877562
221	0xb323ba22	-3.812068e-08
222	0x3baa1d65	0.0051914924
223	0xb32aa66c	-3.973257e-08
224	0x3c5c8c90	0.013461247
225	0xbbc093ab	-0.0058769784
226	0x3c4bd37e	0.01244056
227	0xbc70354c	-0.014661144
228	0x3c5c0250	0.013428286
229	0xae3cc075	-4.2917187e-11
230	0xbc2f8a54	-0.010714132
231	0xbb7c4d78	-0.0038498323
232	0x3d2a5f79	0.041594956
233	0xb3aa9c7a	-7.944705e-08
234	0xb1325f6a	-2.5956646e-09
235	0x3b128363	0.0022356145
236	0x3cb95f5f	0.022628484
237	0xbc9576c8	-0.018245116
238	0xbca0d4d2	-0.01963273
239	0x3d14746d	0.036243845
240	0x3d4c7a52	0.04992134
241	0x31d12544	6.086937e-09
242	0xbd60e78f	-0.05490833
243	0x32da0a0b	2.5383107e-08
244	0x3d1c5a47	0.038172033
245	0xbbe5c55d	-0.007012053
246	0x3b01963e	0.001977339
247	0xbd03a026	-0.03213515
248	0x3d5c30b0	0.05375737
249	0xbc251a0f	-0.010077014
250	0xbd4ae9f9	-0.04953954
251	0x3d0d8e4c	0.034559533
252	0x3d68db39	0.056849692
253	0x3df7f134	0.12106553
254	0x31a8b089	4.9095132e-09
255	0xbd387045	-0.045028944

model.3.bias f4 [128]
0	0xbcf84c19	-0.030309724
1	0x3d2645ac	0.040593788
2	0x3a7ebc27	0.0009717368
3	0x3cf35620	0.029704154
4	0xbd5477fc	-0.05187224
5	0x3d0e9c90	0.03481728
6	0x3d8c9539	0.068643995
7	0x3d75e92d	0.060036827
8	0xbd01b605	-0.031667728
9	0x3a86832e	0.0010262483
10	0xbb8f0f71	-0.0043658544
11	0xbcea92e4	-0.028634496
12	0xbd8af50f	-0.067850225
13	0x3d2b0a3f	0.04175782
14	0xbcc2fe44	-0.023802884
15	0xbd8023d2	-0.06256832
16	0x3d7e82d0	0.06213647
17	0xbd36666f	-0.044531282
18	0x3cca67e4	0.024707742
19	0xbcc4f4aa	-0.024042446
20	0xbbc03bde	-0.0058665117
21	0x3d463a3b	0.048395377
22	0x3d1b3d11	0.037900034
23	0x3c18496f	0.009294852
24	0xbc97071e	-0.01843601
25	0x3d176044	0.03695704
26	0x3cc994b4	0.02460704
27	0x3d2a42b6	0.041567527
28	0xbd904754	-0.07044855
29	0x3d46bf42	0.04852224
30	0x3cc7767f	0.024348496
31	0x3d5b5133	0.053544234
32	0xbbc881d8	-0.006118994
33	0x3c702490	0.014657155
34	0x3d8c2d2e	0.06844555
35	0x3b60260f	0.0034202372
36	0x3c7e8aa5	0.015535985
37	0xbd1f0ec3	-0.038832437
38	0x3d60db20	0.054896474
39	0xbd1de972	-0.03855271
40	0xbc901c97	-0.017591758
41	0xbd42b471	-0.047535364
42	0x3cb852ad	0.02250036
43	0x3b803957	0.0039130854
44	0x3c4800fe	0.012207268
45	0x3d9266a3	0.07148483
46	0xbd7f56d6	-0.062338673
47	0x3d337afa	0.04381845
48	0xbca51f80	-0.020156622
49	0xbd3d6a20	-0.046243787
50	0x3ca4c2bd	0.02011239
51	0x3d941f4a	0.072325304
52	0x3d967bcc	0.07347831
53	0x3da1eb2a	0.07906182
54	0x3c02b4e5	0.007977699
55	0x3d3cc8ff	0.046090122
56	0x3d90bbd8	0.07067078
57	0xbb357505	-0.0027688157
58	0xbd2a0d38	-0.041516513
59	0x3ccb54a5	0.024820635
60	0xbc6650be	-0.014057336
61	0xbd6c28f1	-0.057656232
62	0x3d4a1e46	0.049345277
63	0x3da36af4	0.07979384
64	0x3d097c91	0.03356606
65	0x3cbae730	0.022815317
66	0x3d670194	0.05639799
67	0xbc76d91b	-0.01506641
68	0xbcaead7d	-0.02132296
69	0xbd1db14a	-0.038499154
70	0xbc63dee1	-0.013908119
71	0xbcb8647e	-0.022508856
72	0x3d56e8a1	0.052467946
73	0x3b08646c	0.002081181
74	0x3d8e05a2	0.06934668
75	0x3d13d959	0.03609595
76	0xbc031b9e	-0.00800219
77	0x3cbff95f	0.02343434
78	0x3d2be66c	0.041967794
79	0x3d832504	0.064035445
80	0x3c2ec64b	0.010667394
81	0x3d586fd7	0.052841034
82	0xbd7562dd	-0.059908736
83	0x3c094213	0.00837757
84	0x3d8dc553	0.06922402
85	0xbd287d70	-0.04113525
86	0xbca85a17	-0.02055077
87	0x3d8cc7c3	0.06874039
88	0x3b9cc916	0.0047847135
89	0xbcf04b79	-0.029332863
90	0x3ba288b1	0.0049601425
91	0xbc21e4f2	-0.009881245
92	0x3b9da27e	0.0048106303
93	0xbd306062	-0.043060668
94	0x3d9ec0d3	0.07751622
95	0x3d877ecf	0.06615984
96	0x3c937e99	0.018004702
97	0x3b7abdcd	0.0038260103
98	0x3d48a615	0.048986513
99	0x3d3dec33	0.046367835
100	0x3d280ced	0.041027952
101	0xbd101804	-0.035179153
102	0x3d57bb39	0.052668784
103	0x3d8e1990	0.069384694
104	0x3c203502	0.009778263
105	0xbcc1ff45	-0.023681292
106	0xbd2b50f1	-0.04182524
107	0xbd893d30	-0.06701124
108	0xbb640d73	-0.0034798055
109	0xbd544dfc	-0.051832184
110	0x3c9bf709	0.019038694
111	0x3d163917	0.03667554
112	0x3bc218b7	0.0059233564
113	0xbce8fbcf	-0.028440384
114	0x3d1aff81	0.037841324
115	0xbc12cb80	-0.008959651
116	0x3d8805d1	0.066417344
117	0x3d787cc8	0.060665876
118	0x3cdb720f	0.026787786
119	0xbd1803a0	-0.037112832
120	0x3d92f0c2	0.07174827
121	0x3cadba78	0.02120708
122	0xbd455105	-0.04817297
123	0x3c559df2	0.013038145
124	0xbd3ee662	-0.04660643
125	0x3d5bc900	0.053658485
126	0xbb94e86d	-0.004544309
127	0xbd21b629	-0.039480362

model.6.weight f4 [64, 128]
0	0x3d9596e1	0.073041685
1	0x3d5893d9	0.052875374
2	0xbd34e4ef	-0.04416364
3	0x3cef1e17	0.029189153
4	0x3bb1e864	0.0054293144
5	0x3d3a21fd	0.04544257
6	0xbde26fdd	-0.110564925
7	0x3dd2c5a3	0.102916025
8	0xbc83ce80	-0.016089678
9	0x3cf880f4	0.030334927
10	0xbc048f1a	-0.008090759
11	0xbd16e303	-0.03683759
12	0x3d26494d	0.04059725
13	0x3e08a5b6	0.13344464
14	0x3d51e9d4	0.051248387
15	0xbd921cb1	-0.07134379
16	0x3dbdce7f	0.09267902
17	0x3d8c2ef8	0.06844896
18	0x3d99c2e8	0.075078785
19	0xbc840e51	-0.016120108
20	0x3c667b9a	0.014067555
21	0xbdcae347	-0.09906631
22	0x3d93052e	0.07178722
23	0xbd24dea1	-0.040251378
24	0x3e1338ec	0.14377183
25	0x3daa3432	0.08310737
26	0x3bb38feb	0.005479803
27	0xbc90c939	-0.017674075
28	0xbcee8b21	-0.029119076
29	0x3d29e28b	0.041475814
30	0xbd2180c9	-0.03942946
31	0x3db869ca	0.09004553
32	0xbaeef866	-0.0018231987
33	0x3d99bb54	0.07506433
34	0x3caefecd	0.021361733
35	0xbd99ea18	-0.07515353
36	0xbd01b2e2	-0.031664737
37	0x3cc792b8	0.024361953
38	0xbd1a1bb5	-0.03762408
39	0xbd8527bb	-0.065017186
40	0xba779715	-0.0009444815
41	0x3d84c128	0.06482154
42	0xbd57651d	-0.052586664
43	0x3ddce2d5	0.10785452
44	0x3d58f71a	0.05297003
45	0xbc93b23b	-0.018029323
46	0x3a5e383f	0.0008477009
47	0x3d5450e5	0.05183496
48	0x3d4c27bc	0.04984258
49	0xbd2c243c	-0.042026743
50	0x3c7ed8e1	0.015554638
51	0x3cd5db9d	0.026105696
52	0x3dff387e	0.12461947
53	0x3cb295fb	0.021800032
54	0xbaa0f86b	-0.0012281066
55	0xbc208f90	-0.009799853
56	0x3d0337bf	0.032035585
57	0xbd6f0b27	-0.058360245
58	0xbd0d92fc	-0.034564003
59	0xbc9612f8	-0.018319592
60	0xbcd1ab2a	-0.025594313
61	0xbd615af5	-0.055018384
62	0xbb848e9d	-0.004045321
63	0xbc97e84c	-0.018543385
64	0xbd9cabe9	-0.07649977
65	0xbce77573	-0.028254246
66	0x3d68990d	0.056786586
67	0x3d2ce3fd	0.042209614
68	0x3d6e8038	0.058227748
69	0xbd568f4e	-0.05238276
70	0x3dc4fe5e	0.09618829
71	0xbd5b1905	-0.053490657
72	0x3d0a3d28	0.03374973
73	0xbdf63706	-0.12022214
74	0x3e172e2d	0.14763708
75	0x3de62fdc	0.11239597
76	0xbd6dfc4c	-0.058101937
77	0xbadec05c	-0.0016994583
78	0xbd3b3af0	-0.045710504
79	0x3da79f69	0.08184702
80	0x3d9a5d8d	0.07537375
81	0x3da99a67	0.08281403
82	0x3d82a05d	0.06378243
83	0xbd4b0fee	-0.04957574
84	0xbbc72870	-0.0060778186
85	0xbcc1f7e6	-0.023677777
86	0x3d4283cd	0.047488976
87	0x3d33b65e	0.04387509
88	0x3ca174ae	0.019708958
89	0x3e0005c7	0.12502204
90	0x3ca38049	0.019958632
91	0xbd33ad99	-0.043866728
92	0x3c127397	0.008938692
93	0xbca2bc70	-0.019865245
94	0x3de8f87f	0.11375522
95	0x3c9ad8b5	0.018902162
96	0x3df74ca3	0.12075164
97	0x3dd6e1c2	0.10492279
98	0x3dddb26c	0.10825047
99	0x3db4d921	0.088304766
100	0xbd76c522	-0.060246594
101	0x3cf871e3	0.030327743
102	0xbc7c82a4	-0.0154120065
103	0xbcf5fbe5	-0.03002734
104	0x3cf10921	0.029423298
105	0x3d812865	0.06306533
106	0x3cd7628b	0.026292106
107	0x3d48a169	0.048982058
108	0xbcaf9ae0	-0.021436155
109	0xbcdcd663	-0.026957696
110	0xb98aa8e3	-0.00026447242
111	0x3dc90b08	0.09816557
112	0x3a88aaf3	0.0010426923
113	0x3d8bee6f	0.06832587
114	0x3d2aaadd	0.041666854
115	0x3d91342f	0.07090031
116	0x3ded1201	0.115756996
117	0xbd3a2c24	-0.045452252
118	0x3d119e11	0.035551134
119	0x3b9a5a14	0.004710445
120	0xbd77094e	-0.060311608
121	0xbdd6aba0	-0.104819536
122	0xbd893198	-0.066989124
123	0xbda46b82	-0.08028318
124	0x3bca754a	0.0061785327
125	0x3d3d8c2f	0.046276268
126	0xbc1025aa	-0.008798042
127	0x3d7e1db5	0.06204005
128	0x3da22cd9	0.0791871
129	0x3dafcb4e	0.08583699
130	0xbc084a2b	-0.008318464
131	0x3d4bd2b8	0.049761504
132	0xbd47ebb9	-0.048808787
133	0xbd1610cf	-0.036637124
134	0xbd1704a3	-0.036869656
135	0x3daa80a4	0.083253175
136	0x3da815f5	0.08207313
137	0x3d8ed542	0.069742694
138	0x3a71b07a	0.00092197175
139	0x3c23ab4d	0.009989572
140	0xbdb26c8f	-0.08712112
141	0x3d5814d1	0.052754227
142	0x3d2d27b0	0.042274177
143	0x3d5b9291	0.053606573
144	0x3d876086	0.06610207
145	0x3d2dcd6a	0.042432226
146	0xbd3ac6f5	-0.045599896
147	0xbcc48426	-0.023988795
148	0x3c837f92	0.016052041
149	0x3cd6c3d5	0.026216427
150	0x3de3e71e	0.111280665
151	0xbd7af918	-0.06127271
152	0x3d9faddc	0.07796833
153	0x3d3757ef	0.044761594
154	0x3d7a3709	0.061087642
155	0x3d1dc257	0.038515415
156	0xbd01571a	-0.031577207
157	0x3d5fbf6a	0.054625906
158	0x3d921f97	0.071349315
159	0xbab77c34	-0.0013998807
160	0xbd140cb7	-0.03614494
161	0x3d33600d	0.043792773
162	0xbdd3c4be	-0.1034026
163	0xbd87d3e6	-0.06632213
164	0x3e062ee4	0.13103825
165	0x3db146a7	0.08656054
166	0xbd88c89c	-0.06678888
167	0xbbd67231	-0.0065443744
168	0xbd67cdce	-0.056592755
169	0xbd7b1261	-0.061296824
170	0xbd82fccb	-0.06395873
171	0x3db85495	0.09000508
172	0xbbec0cc5	-0.0072036707
173	0xbcd2ff03	-0.025756365
174	0xbca5610e	-0.02018788
175	0x3d668114	0.056275442
176	0xbc07a39e	-0.0082787555
177	0x3db3567b	0.08756729
178	0xbd787739	-0.060660575
179	0xbdcc46fa	-0.09974475
180	0x3de92316	0.11383645
181	0xbd4557a9	-0.048179302
182	0x3d17f6c6	0.037100576
183	0x3cddcd36	0.027075391
184	0x3c4a6140	0.012352288
185	0xbd964cfa	-0.07338901
186	0x3cd35268	0.02579613
187	0x3d30b5f7	0.043142285
188	0x3cbef42b	0.023309788
189	0x3d87514f	0.06607305
190	0x3e03f3da	0.1288599
191	0x3db93602	0.09043504
192	0xbd36a978	-0.04459521
193	0x3d20495b	0.039132457
194	0x3d31850d	0.043339778
195	0x3d880cd5	0.066430725
196	0x3d665ab8	0.05623886
197	0xbd9d2d5f	-0.076746695
198	0xbb92f16e	-0.004484347
199	0xbd819d5d	-0.06328843
200	0xbc8f4065	-0.01748676
201	0xbcf62a29	-0.0300494
202	0x3d179079	0.037003014
203	0x3e05ab66	0.13053665
204	0xbc95a996	-0.018269341
205	0xbd25dcc3	-0.040493738
206	0xbd22d948	-0.039757997
207	0xbc612fbe	-0.013744293
208	0xbd228629	-0.039678726
209	0x3d989f28	0.07452232
210	0x3d0ddde3	0.034635436
211	0xbbd82242	-0.0065958807
212	0x3da31ec0	0.079648495
213	0x3d35c58c	0.04437785
214	0xbd31ce8f	-0.04340988
215	0xbdf98b4a	-0.121847704
216	0x3e004632	0.12526777
217	0x3c49040d	0.012269032
218	0xbd3ba472	-0.045811124
219	0x3d60559b	0.05476914
220	0xbc52e0ca	-0.012870977
221	0xbd84da68	-0.0648697
222	0x3d04f5a2	0.032460816
223	0xbdb52bd7	-0.088462524
224	0x3c51a518	0.012795709
225	0xbd006d74	-0.031354383
226	0x3dabdd60	0.08391833
227	0xbb5c4add	-0.0033613958
228	0xbc868162	-0.016419116
229	0x3dd7406b	0.105103336
230	0xbdb4f453	-0.08835664
231	0xbd991893	-0.0747539
232	0xbc9f599b	-0.019451907
233	0x3d7a4d64	0.06110896
234	0x3d1c6e04	0.038190857
235	0xbad65cc6	-0.0016354553
236	0xbd9b4b6b	-0.07582744
237	0xbb00e346	-0.0019666716
238	0xbd830470	-0.06397331
239	0xbd25aae6	-0.040446185
240	0xbd9b879b	-0.07594224
241	0x3db9509f	0.090485804
242	0x3d16e7cc	0.036842152
243	0x3d90d188	0.07071215
244	0x3ccab18d	0.024742866
245	0x3c814114	0.015778102
246	0x3c04924a	0.008091519
247	0x3ce799e2	0.02827162
248	0xbc7a09bb	-0.015261109
249	0x3cf479f2	0.029843304
250	0x3d8aa149	0.06769044
251	0x3b83d107	0.0040227207
252	0x3d2d2e29	0.04228035
253	0xbd14dee9	-0.036345396
254	0x3d90acd0	0.07064211
255	0xbcb8096a	-0.022465426

model.6.bias f4 [64]
0	0x3de7dce2	0.11321427
1	0x3dcd644e	0.10028897
2	0x3cb2cbbd	0.021825666
3	0x3c786a02	0.015161993
4	0x3da9c858	0.08290166
5	0x3c9eb6ed	0.019374335
6	0xbd6e8c82	-0.058239467
7	0x3cddd1a3	0.027077502
8	0xbd711fda	-0.058868267
9	0xbb9e39d7	-0.0048286724
10	0xbd345bf2	-0.044033
11	0x3a2db267	0.000662601
12	0xbd058ec2	-0.032606848
13	0x3daf0b27	0.08547049
14	0x3dbe1d26	0.092829034
15	0xbd4069d9	-0.046975944
16	0x3cffcca4	0.03122551
17	0x3dae053e	0.084970936
18	0xbc4a9082	-0.012363555
19	0x3d82fd31	0.06395949
20	0x3dbd7ff9	0.092529245
21	0xbd5c5395	-0.053790648
22	0xbbdaff81	-0.0066832905
23	0xbcd559af	-0.026043741
24	0x3d983dfd	0.07433698
25	0xbb8108d1	-0.0039378186
26	0x3da33c21	0.07970453
27	0xbd35315f	-0.044236537
28	0x3d3a5527	0.045491364
29	0x3defc93b	0.117083035
30	0x3d20aab3	0.03922529
31	0x3cac96e3	0.021068042
32	0x3dab7995	0.08372799
33	0x3c392f79	0.011302822
34	0x3db2cbad	0.08730254
35	0x3d056810	0.032569945
36	0xbd5661c6	-0.052339338
37	0xbd4e4452	-0.050358124
38	0x3cd4feea	0.026000459
39	0x3d23088a	0.039803065
40	0xbc88c668	-0.01669617
41	0xbcd16d77	-0.025564892
42	0xbc96a8d7	-0.018391056
43	0x3d93f9d4	0.07225385
44	0x3c57b228	0.013165034
45	0x3d7c1850	0.061546624
46	0xbcd97e41	-0.02654946
47	0xbd8a67e1	-0.067580946
48	0xbc9d9e6e	-0.019240584
49	0x3db8eccd	0.09029541
50	0x3d28e7df	0.041236755
51	0xbd5d970f	-0.05409914
52	0x3d3658e1	0.044518355
53	0x3c4abdf5	0.012374391
54	0x3c8f2f57	0.017478628
55	0xbcef12da	-0.029183794
56	0x3d26d667	0.040731814
57	0x3d5afb2b	0.05346219
58	0xbd777945	-0.060418386
59	0x3d977551	0.07395423
60	0x3c590658	0.013246141
61	0x3d87f40f	0.06638347
62	0xbda32a6c	-0.07967076
63	0x3c1e89fc	0.009676453

model.9.weight f4 [1, 64]
0	0x3e01ccab	0.12675731
1	0x3debb927	0.115099244
2	0xbe070020	-0.13183641
3	0xbdf13057	-0.11776798
4	0x3e17508b	0.14776818
5	0xbc2fb516	-0.010724327
6	0xb9dae61e	-0.0004175165
7	0x3e077e87	0.1323186
8	0xbe128c0a	-0.14311233
9	0x38146d4d	3.5387744e-05
10	0x3e4ced33	0.2001236
11	0xbd53a701	-0.05167294
12	0x3deb4536	0.1148781
13	0x3de5bb1f	0.11217331
14	0xbdaaba24	-0.08336285
15	0xbe3eaf5e	-0.18621585
16	0xbda4afa3	-0.080413125
17	0xbe11d084	-0.14239699
18	0xbe220fd6	-0.15826353
19	0xbde6a185	-0.11261276
20	0x3e1c2ddb	0.15251867
21	0x3e350fa8	0.17681754
22	0x3e10b2d3	0.14130716
23	0xbcd6e30a	-0.026231308
24	0x3dbf2cd6	0.09334724
25	0xbe2b40b9	-0.16723908
26	0xbda4cc01	-0.08046723
27	0x3e062010	0.13098168
28	0x3e095f32	0.1341522
29	0x3dac47c6	0.08412127
30	0x3e14b5a7	0.1452242
31	0x3e4208c0	0.1894865
32	0x3e27b608	0.16378033
33	0xbe3bc3dd	-0.18336435
34	0x3e14ca8a	0.14530388
35	0x3dce5761	0.1007526
36	0xbd641363	-0.05568255
37	0xbde8b078	-0.11361784
38	0x3dc693d9	0.096961685
39	0xbde4fb92	-0.11180796
40	0xbdc8fbc6	-0.09813647
41	0xbdedd80a	-0.11613472
42	0xbe2f2bbe	-0.1710653
43	0xbe3ebe2d	-0.18627234
44	0xbe12f6c3	-0.14351945
45	0x3e09935d	0.13435121
46	0xbdcb98da	-0.099412635
47	0x3ddead23	0.10872867
48	0xbe2ca2f9	-0.16859044
49	0xbda929a3	-0.08259895
50	0xbdc57ae6	-0.09642582
51	0x3e252e8f	0.16131042
52	0x3da5a77d	0.080885865
53	0x3e15e946	0.14639768
54	0xbd876b02	-0.06612207
55	0x3de44d89	0.11147601
56	0x3da24509	0.07923324
57	0x3e26f457	0.16304146
58	0xbdddf942	-0.10838558
59	0xbdf7805f	-0.12085032
60	0xbe32ac3a	-0.17448512
61	0x3df42264	0.11920622
62	0x3d56b864	0.052421942
63	0xbd9b7462	-0.07590558
